BabbleApp/Models/GARBONETv24/onnx/head_with_selu.onnx (onnx, 47601 bytes, 2 tensors)

fc.weight f4 [46, 256]
000000 7c c4 bd bc 2c b0 43 bd f6 27 7b 3d bc 99 3d 3d
       -0.02316498 -0.047775432 0.061317407 0.04628919
000010 80 2f 25 3d 20 0c 56 3d 10 2a ba 3b 90 f0 e8 bb
       0.040328503 0.052257657 0.005681284 -0.0071087554
000020 e4 86 3b 3d a0 b2 aa 3b 00 4f 03 bb ba 3e 41 bd
       0.04578294 0.005209282 -0.0020036101 -0.04717896
000030 70 d9 52 bd 00 01 df bb 3c 84 d9 3c f8 93 64 3d
       -0.051476896 -0.006805539 0.026552312 0.055805176
000040 a4 e8 67 3d 24 c1 a6 3c c2 33 74 3d fa 2a 31 3d
       0.056618348 0.020355769 0.059619673 0.043253876
000050 ea 97 73 3d 84 c9 63 bd a0 55 65 bd a2 4d 02 bd
       0.05947105 -0.055612102 -0.05598986 -0.031812318
000060 de 89 3f 3d 60 c8 1c 3d b8 df e7 3c 80 66 be 3a
       0.04676234 0.03827703 0.02830492 0.0014526397
000070 04 d5 de 3c f6 3c 30 bd 7e 29 2f bd 28 d2 92 3c
       0.027201183 -0.043026887 -0.04276418 0.017922476
000080 4e 1e 5b 3d b2 a6 66 bd f6 27 51 bd 26 d5 16 3d
       0.053495698 -0.056311317 -0.0510635 0.036824368
000090 34 dc a6 bc 5c e2 60 bd 28 41 04 bd 50 c1 d3 3b
       -0.020368673 -0.054903373 -0.0322887 0.0064622536
0000a0 10 c5 a3 bc 38 5c b2 3c 22 e0 13 3d dc 22 f1 bc
       -0.019991428 0.021772489 0.03610242 -0.029435568
0000b0 98 53 21 3d 5e 69 7e bd b8 22 3c 3d ee e3 7f 3d
       0.03938636 -0.062112205 0.045931548 0.06247323
0000c0 f6 12 64 3d 80 8e f5 ba 28 fa 17 3d 32 3f 3f bd
       0.055682145 -0.0018734485 0.037103802 -0.046691127
0000d0 d8 66 8a 3c 04 42 a6 3c 90 ac 1c 3c ae b0 42 3d
       0.016894743 0.02029515 0.0095626265 0.047531776
0000e0 0e 63 47 bd 86 18 28 bd 06 82 67 bd 88 6e d0 bc
       -0.04867845 -0.041039012 -0.056520484 -0.02544333
0000f0 00 8d 66 3c 94 64 9a bc 02 92 0c 3d 90 fd 1d 3c
       0.014071703 -0.018846788 0.03431893 0.009642974
000100 cc c4 70 3d 2c 30 e3 bc 80 9c 6b 3a 3e 54 47 bd
       0.05878143 -0.027732931 0.0008987859 -0.048664324
000110 2c 78 34 3d 4a 82 14 3d ea fb 60 bd 60 6f 09 3d
       0.044059917 0.036257066 -0.054927744 0.03355348
000120 50 d4 ac 3b 80 8e a5 ba de 7c 7d 3d 88 74 31 bd
       0.005274333 -0.0012630969 0.06188666 -0.043324023
000130 50 e0 fc bc 70 ff 23 3d f6 1b 61 3d 98 97 eb bc
       -0.03086868 0.040038526 0.054958306 -0.028758809
000140 30 e3 9d 3b 10 ae 66 bc 40 e9 3a 3c 5c 76 95 bc
       0.0048183426 -0.014079586 0.01140815 -0.018244915
000150 5c a1 71 bd 8a 62 1a 3d 9e 74 1f bd c0 15 e9 3c
       -0.058991775 0.03769163 -0.038929574 0.028452754
000160 b2 52 2f bd 04 15 dc 3c 00 b1 f3 39 e8 ce 2a 3d
       -0.042803474 0.02686549 0.00046480447 0.041701227
000170 50 53 82 bb 3e fc 7d 3d 34 43 f8 3c fa b9 21 3d
       -0.003977217 0.062008135 0.030305482 0.039484
000180 58 76 48 3c 48 87 a8 bc 5c 86 bf 3c a0 bb 7a bc
       0.012235247 -0.02057232 0.023379497 -0.015303522
000190 7c 73 cf 3c ea 8d 4f 3d 7a d4 11 bd c0 4e 34 3c
       0.025323622 0.05067245 -0.035603024 0.011005104
0001a0 2c 10 d1 bc 58 dd 01 bc 00 7f 9a bc 3c 36 01 bd
       -0.025520407 -0.007926308 -0.018859386 -0.031545863
0001b0 c0 b9 cf ba 2c 90 8c bc 80 29 60 ba 50 32 b1 bb
       -0.0015848204 -0.01715859 -0.0008551106 -0.005407609
0001c0 da a7 44 bd 30 33 c2 bb 1c da 20 3d 84 3d 7f 3d
       -0.04801164 -0.005926512 0.039270505 0.062314525
0001d0 d0 f7 01 3c e0 55 6b bb 20 64 7d bd 5a 8a 0e bd
       0.007932618 -0.003590934 -0.061863065 -0.03479991
0001e0 3c 44 a2 bc 02 7c 27 3d 96 f9 56 bd a0 42 3f 3b
       -0.019807927 0.040889747 -0.052484117 0.0029183999
0001f0 48 c4 79 bd a8 a6 95 bc 14 af 0b bd 00 c5 c2 3b
       -0.060978204 -0.018267944 -0.034102514 0.0059438944
000200 f0 c7 80 bb b0 a6 49 3d 74 f9 74 3d 04 23 64 bd
       -0.0039300844 0.04923123 0.05980821 -0.055697456
000210 98 c0 d3 bc e0 4f 98 bc 80 30 38 3d 8c 3a 0e 3d
       -0.025848672 -0.018592775 0.04496813 0.034723803
000220 c8 a2 ae 3c 98 74 91 3c e4 73 1d bd 40 6d 45 3d
       0.021317855 0.017755792 -0.0384406 0.048199892
000230 fe e7 2f 3d 08 a5 cf bc d0 98 c4 bc 94 ee 4a 3d
       0.042945854 -0.025347248 -0.023998648 0.049543932
000240 c6 42 5f 3d 40 8e cc bb 36 f9 4d bd d2 87 53 bd
       0.05450704 -0.0062425435 -0.050286494 -0.0516432
000250 18 9b c6 bc e0 6c 36 3d 02 ec 2c 3d e6 04 05 bd
       -0.024243876 0.044537425 0.042217262 -0.032475375
000260 e4 48 ec bc 06 bc 00 3d 22 97 37 3d e8 8e 2e 3c
       -0.02884335 0.031429313 0.044821866 0.010654189
000270 4e 12 48 3d 00 cd b2 3b a0 b9 d7 bb b8 92 d9 3c
       0.04884558 0.005456567 -0.0065834075 0.026559219
000280 58 73 5b bd 0a 13 3c 3d 72 79 06 bd 24 18 5f bd
       -0.053576797 0.045916595 -0.032830663 -0.05446638
000290 0a af 36 bd 10 de 4e 3c 96 2f 15 3d 1c ce 27 bd
       -0.044600524 0.012626186 0.036422335 -0.040968046
0002a0 80 2d 59 3b 04 9c 42 3d 98 89 7b 3c e0 78 36 3c
       0.0033138692 0.04751207 0.015352629 0.011137217
0002b0 80 d6 de 3c e4 bd 0c 3d 50 61 d1 bc 08 c7 98 bc
       0.027201891 0.03436078 -0.025559098 -0.018649593
0002c0 08 b0 06 3c 04 48 42 3d 94 db 80 bc f0 96 a0 3b
       0.00822068 0.04743196 -0.015729703 0.0049008057
0002d0 94 1e 40 bd 20 62 7d 3b 94 b9 68 bd 50 8c 00 bc
       -0.04690416 0.0038663223 -0.056817606 -0.007845953
0002e0 d8 4f d4 3c f2 4f 7e 3d 34 ca 79 bd 56 6a 48 bd
       0.025916979 0.06208796 -0.06098385 -0.048929535
0002f0 70 ad b3 bb ac b5 d5 3c a6 27 61 bd ea 48 49 bd
       -0.005483322 0.026087604 -0.054969452 -0.049141802
000300 10 50 35 3d 7a cc 05 3d f8 41 4a 3d 2e 2c 43 3d
       0.044265807 0.032665707 0.04937932 0.047649555
000310 84 0d 8e bc f8 15 74 bc a4 63 eb 3c 1c 8e bb 3c
       -0.01734043 -0.014897816 0.028734036 0.022894911
000320 a8 4e 58 3d 30 cd 02 3c 80 94 ac 3c c4 25 41 bd
       0.052809387 0.007983491 0.021066904 -0.047155157
000330 f0 90 3b bc 9a 29 26 3d fc 00 e2 3c fa 13 36 bd
       -0.01144813 0.040567018 0.02758836 -0.044452645
000340 40 96 60 3b 16 39 3d bd d4 ab da 3c fc c8 bb bc
       0.0034269243 -0.04619702 0.026693262 -0.022922985
000350 be ab 57 3d 10 82 86 3b 50 47 ec 3c 08 59 da 3c
       0.05265402 0.00410486 0.028842598 0.026653782
000360 10 f1 62 bd 00 90 98 38 62 3e 08 bd 9a e9 5e bd
       -0.055405676 7.274747e-05 -0.033262618 -0.054422
000370 6c 8e 55 bd 40 20 70 3b 04 3c 13 3d 30 fe 94 3b
       -0.052137777 0.0036640316 0.035945907 0.004546903
000380 08 62 2a 3d 40 8d 62 3d bc cb 9c bc 18 42 31 bd
       0.041597396 0.055310488 -0.019140117 -0.043275923
000390 86 cc 33 3d 0a 60 58 bd f4 2b dd bc 84 5d dd 3c
       0.04389622 -0.052825965 -0.026998498 0.02702213
0003a0 bc f7 51 3d 18 08 35 bc a6 a9 06 3d d2 4f 11 bd
       0.05126165 -0.011049293 0.032876633 -0.035476513
0003b0 7e aa 0d 3d e8 8e f8 bc 68 97 5d 3c aa 7b 3a 3d
       0.034586422 -0.03034158 0.013524868 0.04552809
0003c0 b0 24 82 bb b4 37 51 3d b2 73 65 3d c0 69 9c 3c
       -0.0039716586 0.051078513 0.05601854 0.019093394
0003d0 0a 82 3d bd 10 0e da bc 44 7f 73 bd 48 06 48 3d
       -0.046266593 -0.026618034 -0.05944754 0.048834115
0003e0 60 49 a6 3c 6e 71 0c bd b8 d7 98 3c c6 c0 20 3d
       0.02029866 -0.034287862 0.01865755 0.039246343
0003f0 e0 cf 63 bc c8 01 1c bc 18 70 5a 3c aa da 27 bd
       -0.013904542 -0.009521909 0.013332389 -0.04098002

fc.bias f4 [46]
000000 80 06 e8 3b 46 e7 3a bd f0 c0 dd 3c 30 11 31 bd
       0.007080853 -0.045630716 0.027069539 -0.043229282
000010 00 3d a8 b9 e0 ff ff 3c 4c 56 a8 3c 00 76 90 3a
       -0.00032088906 0.03124994 0.020548962 0.0011021495
000020 64 e4 ca 3c 70 b4 67 3c 40 b5 bd bb c0 70 e8 3a
       0.024767108 0.014142141 -0.005789429 0.0017733797
000030 ba f8 4e 3d bc bc 9c bc 68 32 28 3c d0 6e aa bc
       0.050530173 -0.019132964 0.010265924 -0.020804793
000040 5a 00 0d bd 38 53 bb 3c ba c9 60 3d b0 8b 41 bd
       -0.034424163 0.02286683 0.05487988 -0.047252357
000050 b0 c5 51 3d 38 6e 15 3d 1e 2f 4c 3d b0 7c 8d bb
       0.05121392 0.036482066 0.049849622 -0.0043178424
000060 90 c1 a1 3b 72 8a 4c 3d f4 6e 60 bd d8 95 ae 3c
       0.0049364045 0.04993672 -0.054793313 0.021311685
000070 2c e4 c2 3c 46 c9 13 bd 26 5d 7e 3d 1a d2 04 3d
       0.023790441 -0.03608062 0.062100552 0.03242693
000080 bc 55 f2 bc d8 f4 5f 3d 40 42 c4 bc 04 d9 35 bd
       -0.029581897 0.05467686 -0.023957372 -0.044396415
000090 94 76 54 bd 1e ab 69 bd 2c 09 2c bd d8 4c 90 3c
       -0.051870897 -0.057047956 -0.042000934 0.017614767
0000a0 c0 27 11 bc 50 73 a1 3c 30 4b 7a 3c a4 1f 96 bc
       -0.008859575 0.019708306 0.015276715 -0.018325634
0000b0 c0 25 53 bb aa 06 00 bd
       -0.0032218546 -0.031256355
