BabbleApp/Models/GARBONETv24/onnx/head_with_selu.onnx (onnx, 47601 bytes, 2 tensors)

fc.weight f4 [46, 256]
0.002229127 0.0011688725 -0.0054492936 -0.0021980323 0.011723546 -0.013968251 -0.027414735 -0.0012535917
-0.03256859 0.00038249412 0.026430625 0.017695868 0.009816973 0.009904286 0.002566558 0.002110164
-0.004297465 0.010546116 -0.021034895 -0.0026902365 -0.027840273 -0.024534684 0.029204993 0.013588793
0.0015918 0.007692673 0.035118505 0.012542858 -0.0071820463 -0.016318923 0.022093736 -0.02057044
0.015569244 0.023601227 -0.0011581766 0.010990381 0.0076751523 -0.0045222472 -0.04030551 0.041681495
-0.021602329 -0.009908078 -0.008845114 -0.018468985 0.013203817 0.0016301074 -0.017609408 0.004715531
-0.015346386 -0.00048339134 -0.049038853 0.0083702635 0.022005247 -0.008331457 0.005499548 5.712958e-05
0.018198684 -0.03011694 0.052446574 -0.021029573 0.0009950752 0.017974524 -0.0069795246 -0.0318449
0.0050092693 -0.03757385 -0.020404173 0.0028371634 -0.007234099 -0.020928912 -0.023354031 -0.014224686
-0.012704369 0.01267587 -0.011913708 0.01156488 0.021958236 0.022145238 0.0077138836 0.03544803
0.30917037 0.0021505817 -0.014085038 0.009796913 -0.008826982 0.001760648 -0.03863224 0.0011933979
0.025044756 0.010795752 -0.017594347 -0.14689098 -0.019120462 -0.025130257 0.009306246 -0.07930169
0.008179453 0.027764536 0.010639609 -0.0009903923 -0.010845191 0.0030705282 0.021970417 0.00045177792
0.00532179 0.01739708 -0.02693709 -0.015124472 -0.005439945 0.0029364887 -0.010140549 0.01231333
0.011714689 -0.01429651 0.003792656 -0.009736151 0.0035782903 0.019478394 -0.0020657845 0.051809326
-0.0039254087 0.025685186 -0.01675542 -0.00023165363 -0.0007796039 -0.008820011 0.025551705 0.03371978
-0.002860011 0.003567574 -0.0039420766 -3.6513888e-05 0.0018636254 -0.0027066912 0.0061693788 -0.007242522
0.005116751 -0.0035954437 -0.0028817465 0.0076639424 -0.002018859 1.8614497e-05 0.0012855477 -0.0014194346
0.00041782562 -0.006158592 -0.0005937357 0.003310771 -0.0035941666 -0.0013577552 -0.013161728 -0.0014378402
0.00039956218 0.009121277 -0.0042313943 -0.0053632343 -0.014611191 0.0017324771 0.0008183864 0.00049921224
-0.0059491303 -0.0069402093 -0.007301381 -0.0027695138 0.0025127653 -0.005211433 0.006168422 0.0021581936
0.0008747864 0.0021418745 -0.013571195 0.0010104566 1.1774581e-05 -0.006956227 -0.0007687542 0.0011351682
-0.0031595821 0.0019302682 0.0011951106 -0.003996171 -0.008583778 0.0057305703 0.0009718891 -0.004830423
0.0026364739 0.001641174 -0.0023654795 0.0049142144 -0.006367666 0.0040328107 0.003054296 0.004482989
-0.004104838 0.0026640669 0.0020486484 0.005534566 -0.008998242 -0.00016561075 -0.004174749 -0.00014682913
-0.0012999984 0.0075311773 0.0067288266 0.00028954496 -0.006295758 -0.002216214 -0.0021479598 -0.0057651144
-0.009141456 -0.0040971683 -0.0003592803 -0.0043509807 -0.00011403784 -0.0041801226 -0.0028317957 -0.0015983232
0.006481441 -0.0037838987 -0.004200119 0.010379002 -0.005862865 -0.0030037162 0.0017831353 0.0022191962
0.0014068299 -0.0024848047 0.0055834954 -0.0037022391 -0.007821782 -0.004939187 0.0039912346 -0.0024718863
0.004328163 0.005076298 0.0025699905 0.008538802 -0.0019755382 -0.002606207 -0.0021850117 0.0004606621
-0.00028371764 0.0011413331 -0.00080777094 -0.0050681136 -0.0020931715 -0.00604501 -0.0028495018 -0.0077491337
-0.015264754 -0.0034775615 -0.0006835302 -0.0010972483 0.0025658917 -0.01334101 -0.00057855865 0.0057179104
00000000: 8c16 123b da34 993a fd8f b2bb dd0c 10bb
00000010: 1e14 403c 17db 64bc de94 e0bc 8f4f a4ba
00000020: a466 05bd 7e89 c839 0a85 d83c edf6 903c
00000030: 5ed7 203c 9645 223c b333 283b ad4a 0a3b
00000040: c0d1 8cbb 9ec9 2c3c 5f51 acbc ae4e 30bb
00000050: 4911 e4bc f6fc c8bc 4f3f ef3c 87a3 5e3c
00000060: f2a3 d03a d112 fc3b 6cd8 0f3d 8f80 4d3c
00000070: 5f57 ebbb 43af 85bc ecfd b43c 5783 a8bc
00000080: 2416 7f3c 5c57 c13c f5cd 97ba 0011 343c
00000090: d87f fb3b 5c2f 94bb 6417 25bd 37ba 2a3d
000000a0: 5ef7 b0bc 7e55 22bc 19eb 10bc 454c 97bc
000000b0: d354 583c 54a9 d53a 9b41 90bc be84 9a3b
000000c0: 686f 7bbc b06f fdb9 f7dc 48bd 6e23 093c
000000d0: 5944 b43c aa80 08bc 8d35 b43b 6b9e 6f38
000000e0: 6815 953c cdb7 f6bc 38d2 563d 3646 acbc
000000f0: 2f6d 823a 4f3f 933c 7fb4 e4bb cc6f 02bd
00000100: cc24 a43b 0ae7 19bd a726 a7bc b4ef 393b
00000110: 050c edbb 1c73 abbc f450 bfbc a80e 69bc
00000120: fc25 50bc 74ae 4f3c b731 43bc 9f7a 3d3c
00000130: c2e1 b33c ee69 b53c bfc4 fc3b f431 113d
00000140: 944b 9e3e c6f0 0c3b eec4 66bc 3b83 203c
00000150: 0c9f 10bc 8bc5 e63a d73c 1ebd ca6b 9c3a
00000160: a92a cd3c aae0 303c 0522 90bc 976a 16be
00000170: 84a2 9cbc f8dd cdbc 3a79 183c ed68 a2bd
00000180: 1d03 063c 7472 e33c c151 2e3c 0dd0 81ba
00000190: 07b0 31bc ea3a 493b 4efb b33c 9bdc ec39
000001a0: 6962 ae3b 5284 8e3c 2cab dcbc a2cc 77bc
000001b0: 9141 b2bb 1b72 403b 8c24 26bc d9bd 493c
000001c0: f8ee 3f3c e93b 6abc 358e 783b 6184 1fbc
000001d0: c081 6a3b 2791 9f3c 1d62 07bb 0436 543d
000001e0: b7a0 80bb bd69 d23c aa42 89bc 0ce8 72b9
000001f0: 555e 4cba cf81 10bc cf51 d13c c11d 0a3d
00000200: 066f 3bbb f6cd 693b 892c 81bb 7d26 19b8
00000210: e444 f43a be62 31bb 8028 ca3b ae52 edbb
00000220: 6baa a73b 89a1 6bbb afdb 3cbb cf21 fb3b
00000230: d54e 04bb 5426 9c37 d37f a83a 520c baba
00000240: 9b0f db39 04ce c9bb eea4 1bba 85f9 583b
00000250: 1c8c 6bbb b4f6 b1ba 4aa4 57bc e975 bcba
00000260: 547c d139 6971 153c 82a7 8abb 12be afbb
00000270: c763 6fbc 4914 e33a fb88 563a 91dd 023a
00000280: ecf0 c2bb b26a e3bb 6c40 efbb bb80 35bb
00000290: 35ad 243b abc4 aabb 7920 ca3b 7b70 0d3b
000002a0: ec51 653a b15e 0c3b b859 5ebc 4c71 843a
000002b0: 718b 4537 10f1 e3bb 3986 49ba edc9 943a
000002c0: fe10 4fbb 0e01 fd3a 42a5 9c3a 50f2 82bb
000002d0: f9a2 0cbc 82c7 bb3b 60c6 7e3a 8648 9ebb
000002e0: b1c8 2c3b a91c d73a 2906 1bbb 6b07 a13b
000002f0: dba7 d0bb ab25 843b 952a 483b 0ae6 923b
00000300: e081 86bb a097 2e3b 9e42 063b 4e5b b53b
00000310: 5d6d 13bc cca7 2db9 55cc 88bb 25f6 19b9
00000320: b564 aaba 18c8 f63b 7d7d dc3b 11ce 9739
00000330: a54c cebb e73d 11bb c9c4 0cbb 49e9 bcbb
00000340: 0cc6 15bc 8a41 86bb c95d bcb9 ac92 8ebb
00000350: 9927 efb8 69f9 88bb a695 39bb d47e d1ba
00000360: 4562 d43b 49fb 77bb 27a1 89bb b10c 2a3c
00000370: 471d c0bb ffd9 44bb 18b8 e93a ef6f 113b
00000380: 6165 b83a 1bd8 22bb c1f5 b63b 44a1 72bb
00000390: ee26 00bc e7d8 a1bb e7c8 823b 5fff 21bb
000003a0: 43d3 8d3b 1357 a63b 496d 283b 55e6 0b3c
000003b0: 0878 01bb e6cc 2abb 6a32 0fbb 0585 f139
000003c0: f0bf 94b9 c998 953a 97c0 53ba 6b12 a6bb
000003d0: 972d 09bb 3815 c6bb b5be 3abb 72ec fdbb
000003e0: 0519 7abc cde7 63bb ef2e 33ba 8bd1 8fba
000003f0: 8528 283b 4094 5abc 6aaa 17ba 4f5d bb3b

fc.bias f4 [46]
0.08972104 0.021233866 0.014228901 -0.024165241 0.01790349 -0.034845296 -0.034216274 0.06781923
0.028758835 -0.0023996662 0.05054026 -0.004025206 -0.027603922 0.037771907 0.014725783 -0.048941452
0.06791416 0.10274947 -0.01597075 -0.0041034636 0.007686961 0.096106246 0.04651346 0.08838796
0.02634142 0.03655635 0.008172507 -0.0031255344 0.012476004 0.09271752 0.08075779 0.06263548
0.015407338 -0.00058545574 0.0004070861 0.0002182744 0.00051206077 -4.3929675e-05 0.00068700535 0.00035150698
5.7879577e-05 -0.00014939815 0.00023206888 -2.5394973e-05 6.148874e-05 -0.00061414647
00000000: aabf b73d a5f2 ad3c 5620 693c 2ff6 c5bc
00000010: 57aa 923c f1b9 0ebd 5d26 0cbd cfe4 8a3d
00000020: a697 eb3c b843 1dbb 4e03 4f3d e0e5 83bb
00000030: 9f21 e2bc b7b6 1a3d 6944 713c d576 48bd
00000040: 9416 8b3d 506e d23d 17d5 82bc 5976 86bb
00000050: e7e2 fb3b 5ad3 c43d e684 3e3d bf04 b53d
00000060: f6c9 d73c 1cbc 153d fbe5 053c c4d5 4cbb
00000070: 2768 4c3c afe2 bd3d 5764 a53d 0847 803d
00000080: 0f6f 7c3c 4579 19ba 2c6e d539 97e0 6439
00000090: d13b 063a 2141 38b8 2618 343a 784a b839
000000a0: b9c3 7238 c3a7 1cb9 8457 7339 4a07 d5b7
000000b0: 84f3 8038 acfe 20ba
